…
npy format events data root ../IBM-dvs128/data/events_npy/train, ../IBM-dvs128/data/events_npy/test already exists
frames data root ../IBM-dvs128/data/frames_num_20_split_by_number_normalization_None already exists.
SNN-lc  20
SNN-conv 
SNN-conv 
SNN-conv 
SNN-conv 
SNN-conv 
SNN-conv 
torch.Size([64, 64, 64]) torch.Size([128, 32, 32]) torch.Size([128, 16, 16]) torch.Size([256, 8, 8]) torch.Size([256, 4, 4]) torch.Size([512, 2, 2])
Model:  SeqModel(
  (network): SNN(
    (conv_snn1): SNN_Conv_cell(
      (pooling): MaxPool2d(kernel_size=2, stride=2, padding=0, dilation=1, ceil_mode=False)
      (conv1_x): Conv2d(2, 64, kernel_size=(7, 7), stride=(1, 1), padding=(3, 3))
      (conv_tauM): Conv2d(64, 64, kernel_size=(7, 7), stride=(1, 1), padding=(3, 3))
      (conv_tauAdp): Conv2d(64, 64, kernel_size=(7, 7), stride=(1, 1), padding=(3, 3))
      (sig1): Sigmoid()
      (sig2): Sigmoid()
      (sig3): Sigmoid()
      (relu): ReLU()
      (BN): BatchNorm2d(64, eps=1e-05, momentum=0.1, affine=True, track_running_stats=True)
      (BN1): BatchNorm2d(64, eps=1e-05, momentum=0.1, affine=True, track_running_stats=True)
      (BN2): BatchNorm2d(64, eps=1e-05, momentum=0.1, affine=True, track_running_stats=True)
    )
    (conv_snn2): SNN_Conv_cell(
      (pooling): MaxPool2d(kernel_size=2, stride=2, padding=0, dilation=1, ceil_mode=False)
      (conv1_x): Conv2d(64, 128, kernel_size=(7, 7), stride=(1, 1), padding=(3, 3))
      (conv_tauM): Conv2d(128, 128, kernel_size=(7, 7), stride=(1, 1), padding=(3, 3))
      (conv_tauAdp): Conv2d(128, 128, kernel_size=(7, 7), stride=(1, 1), padding=(3, 3))
      (sig1): Sigmoid()
      (sig2): Sigmoid()
      (sig3): Sigmoid()
      (relu): ReLU()
      (BN): BatchNorm2d(128, eps=1e-05, momentum=0.1, affine=True, track_running_stats=True)
      (BN1): BatchNorm2d(128, eps=1e-05, momentum=0.1, affine=True, track_running_stats=True)
      (BN2): BatchNorm2d(128, eps=1e-05, momentum=0.1, affine=True, track_running_stats=True)
    )
    (conv_snn3): SNN_Conv_cell(
      (pooling): MaxPool2d(kernel_size=2, stride=2, padding=0, dilation=1, ceil_mode=False)
      (conv1_x): Conv2d(128, 128, kernel_size=(3, 3), stride=(1, 1), padding=(1, 1))
      (conv_tauM): Conv2d(128, 128, kernel_size=(3, 3), stride=(1, 1), padding=(1, 1))
      (conv_tauAdp): Conv2d(128, 128, kernel_size=(3, 3), stride=(1, 1), padding=(1, 1))
      (sig1): Sigmoid()
      (sig2): Sigmoid()
      (sig3): Sigmoid()
      (relu): ReLU()
      (BN): BatchNorm2d(128, eps=1e-05, momentum=0.1, affine=True, track_running_stats=True)
      (BN1): BatchNorm2d(128, eps=1e-05, momentum=0.1, affine=True, track_running_stats=True)
      (BN2): BatchNorm2d(128, eps=1e-05, momentum=0.1, affine=True, track_running_stats=True)
    )
    (conv_snn4): SNN_Conv_cell(
      (pooling): MaxPool2d(kernel_size=2, stride=2, padding=0, dilation=1, ceil_mode=False)
      (conv1_x): Conv2d(128, 256, kernel_size=(3, 3), stride=(1, 1), padding=(1, 1))
      (conv_tauM): Conv2d(256, 256, kernel_size=(3, 3), stride=(1, 1), padding=(1, 1))
      (conv_tauAdp): Conv2d(256, 256, kernel_size=(3, 3), stride=(1, 1), padding=(1, 1))
      (sig1): Sigmoid()
      (sig2): Sigmoid()
      (sig3): Sigmoid()
      (relu): ReLU()
      (BN): BatchNorm2d(256, eps=1e-05, momentum=0.1, affine=True, track_running_stats=True)
      (BN1): BatchNorm2d(256, eps=1e-05, momentum=0.1, affine=True, track_running_stats=True)
      (BN2): BatchNorm2d(256, eps=1e-05, momentum=0.1, affine=True, track_running_stats=True)
    )
    (conv_snn5): SNN_Conv_cell(
      (pooling): MaxPool2d(kernel_size=2, stride=2, padding=0, dilation=1, ceil_mode=False)
      (conv1_x): Conv2d(256, 256, kernel_size=(3, 3), stride=(1, 1), padding=(1, 1))
      (conv_tauM): Conv2d(256, 256, kernel_size=(3, 3), stride=(1, 1), padding=(1, 1))
      (conv_tauAdp): Conv2d(256, 256, kernel_size=(3, 3), stride=(1, 1), padding=(1, 1))
      (sig1): Sigmoid()
      (sig2): Sigmoid()
      (sig3): Sigmoid()
      (relu): ReLU()
      (BN): BatchNorm2d(256, eps=1e-05, momentum=0.1, affine=True, track_running_stats=True)
      (BN1): BatchNorm2d(256, eps=1e-05, momentum=0.1, affine=True, track_running_stats=True)
      (BN2): BatchNorm2d(256, eps=1e-05, momentum=0.1, affine=True, track_running_stats=True)
    )
    (conv_snn6): SNN_Conv_cell(
      (pooling): MaxPool2d(kernel_size=2, stride=2, padding=0, dilation=1, ceil_mode=False)
      (conv1_x): Conv2d(256, 512, kernel_size=(3, 3), stride=(1, 1), padding=(1, 1))
      (conv_tauM): Conv2d(512, 512, kernel_size=(3, 3), stride=(1, 1), padding=(1, 1))
      (conv_tauAdp): Conv2d(512, 512, kernel_size=(3, 3), stride=(1, 1), padding=(1, 1))
      (sig1): Sigmoid()
      (sig2): Sigmoid()
      (sig3): Sigmoid()
      (relu): ReLU()
      (BN): BatchNorm2d(512, eps=1e-05, momentum=0.1, affine=True, track_running_stats=True)
      (BN1): BatchNorm2d(512, eps=1e-05, momentum=0.1, affine=True, track_running_stats=True)
      (BN2): BatchNorm2d(512, eps=1e-05, momentum=0.1, affine=True, track_running_stats=True)
    )
    (snn_rec): SNN_rec_cell(
      (layer1_x): Linear(in_features=2048, out_features=512, bias=True)
      (layer1_tauM): Linear(in_features=1024, out_features=512, bias=True)
      (layer1_tauAdp): Linear(in_features=1024, out_features=512, bias=True)
      (act1): Sigmoid()
    )
    (layer3_x): Linear(in_features=512, out_features=11, bias=True)
    (layer3_tauM): Linear(in_features=22, out_features=11, bias=True)
    (act3): Sigmoid()
    (dp3): Dropout(p=0.1, inplace=False)
  )
  (l2_loss): MSELoss()
)
2021-12-18 09:55:52,154 - trainer - INFO - Optimizer = Adamax (
Parameter Group 0
    betas: (0.9, 0.999)
    eps: 1e-08
    initial_lr: 0.003
    lr: 0.003
    weight_decay: 0.0
)
2021-12-18 09:55:52,154 - trainer - INFO - Model total parameters: 14116051
2021-12-18 09:56:21,198 - trainer - INFO - Train Epoch: 1 [256/1116 (23%)]	lr: 0.003000	Loss: 25.672724	Oracle:                 2.639253	Clf: 20.172707	Reg: 2.860764	Fr: 0.142820	Steps: 340
…
